assets/rl_contract_model.pth (torch, 21868 bytes, 6 tensors)

fc1.weight f4 [64, 5]
00000000: 8719 693e 600b 82be 0c35 b6bc 6e3f d73e
00000010: ad25 8d3e ebde c43e 7b8a 983e 5ade 8a3e
00000020: 63f7 a1be 729b ccbd 6631 9b3e fcf7 683e
00000030: 0ce6 9cbe 66d4 da3e 631e 22be 37fa 563d
00000040: 8735 d63e c610 49be aaa9 8bbd 9d8e 2dbd
00000050: 8bdf 69be c5bf dabe a7d1 af3e c3b1 3bbe
00000060: 34df 6e3d 0098 a63e 5e94 703e 4f67 bcbe
00000070: 3d22 f33d eeea 8c3d cfd9 303e 8814 cebe
00000080: 86ae 743a 6ea5 8a3e 6794 4cbd f37b da3e
00000090: b570 72be 7205 2cbe 6450 1abd 0b07 563d
000000a0: cf1e f8bd 456b cb3e a4b2 9cbe e00f 013e
000000b0: aa42 b8bd 251e 553e 1f61 69be 1cbf dabd
000000c0: ae59 20be 8f8d 92bd fbcd 54be fc93 b7be
000000d0: 943c 26be a221 cfbe 5a72 3abe 0cae c4be
000000e0: f69c 13be d11a be3e cbed b9be 093a b1be
000000f0: 5c38 273e 10d5 2d3e a200 ccbe 511c 48be
00000100: e69d 9a3e cd12 dc3e 6f3c 673d 0361 06bc
00000110: 4889 b83e 8cfd 33be d146 6e3c 0024 8abd
00000120: 2efd a83d c4bc 20be 9bbf b4be 9b2b d8bd
00000130: 1553 263e b300 c03e b224 62bc df2a b43e
00000140: 1d8a 9e3d 71c1 a0be c3f7 e0be b7ff d13d
00000150: 560f b6be 208f 88be a086 4fbd 5b4a 3abd
00000160: 35c3 d63e af35 9abe 47e0 f5bd a56a 46be
00000170: 2550 a9be 9793 533e 3f3c cebe 4e76 0cbe
00000180: c829 153b 525e e13e ab69 4f3d f07a 96be
00000190: b547 5ebe 71f6 733e 88f3 53ba 06d6 9b3c
000001a0: 9569 af3d d3d1 903e 7519 893e 923b 683d
000001b0: a0b9 dcbe c266 933e 2951 c23e 5ef1 903d
000001c0: 33ec e23e 02a6 61be 76ea 34be 086b cfbe
000001d0: 4bb8 4e3e bcab 0b3d 7b2e d5bc fd7b d63d
000001e0: f8b4 8ebe 5fb4 8cb9 cf89 81be 0e90 883e
000001f0: ce38 95be 9cc2 b5be 7f4f 413e 8e83 0b3e
00000200: 30df 203e 886a 01be da24 d83e a8a0 953d
00000210: d4ab 6cbe dbd8 363e 0682 bd3e 05a3 80bb
00000220: b0bb 2f3e 4f95 843e 8fff 1a3e 703a 153d
00000230: 9688 423c f5d8 493e 24cc 753e 154a 8c3e
00000240: ecf6 42be 6546 82bc cc00 653e 8866 b1be
00000250: 9c79 d0be 565e d3be 20ee ce3c be62 9fbe
00000260: f371 a4bd 7bf6 963e 27c8 3c3e 314b 5fbe
00000270: 7932 bfbe cd67 853c 5d9f 5fbc 351e 883e
00000280: 9424 e03e 526a 543d 33fe c23e bde4 673e
00000290: 5f36 42be 496e 773e 930c d0be 6aeb 4ebe
000002a0: 9d9d bbbe 87e8 773c 0f59 cb3d 0dbe 82be
000002b0: 5646 80bd 00a5 cabd 6b1e cbbd b3ff d1be
000002c0: 9059 5abd 567f a73e 509e 8cbe 9613 a03e
000002d0: cccb 9d3c bcdf 39be 4d30 d23e 3a42 8b3e
000002e0: bc7c febc 99c5 5dbd 8ee4 96be e24c d1bd
000002f0: e69e a0be 2086 92bd 48d6 bd3d e95e 5f3d
00000300: cd5e c33e ffdc b4be 4d8a 8abe ece0 c73d
00000310: a325 a43e 96e4 603e b108 9cbe d0ce dd3e
00000320: 42ce c3be 4d9c 753e c2ad 193e f21a 86be
00000330: 59cf 9a3e e8da 72be 12e4 68be a142 c83e
00000340: 1aab d2be 2cc1 d5be 9c5c a93e 56f3 b93e
00000350: c364 dabe 2fe7 563e 8369 6bbe 21bb d5be
00000360: 00d4 993e 98c2 27bc 9c42 cfbe ce66 d33e
00000370: c7d7 c43e bd86 c0bc d078 96be 98a7 c2be
00000380: b45b 933e 17fb 8dbe 5b48 9c3e 352a b83d
00000390: 00b6 45be 8d41 ac3d 819f ee3d 6bd1 fabd
000003a0: 03d2 aebe c866 59bd 38a8 d0be f17c 86be
000003b0: 4764 a7be fd85 6fbe 7bb0 893e f936 c43e
000003c0: 6b97 ad3d 8707 e3be 75ff 30be 67d5 183e
000003d0: abd9 9e3e cb0c f0bd 0c61 a1be 720a d9be
000003e0: 018b c93e b806 d5be a248 c8be 64d7 99bd
000003f0: a4e7 c9be 1ca3 de3d cf96 ce3c 5f22 9f3e
0.22763644 -0.25399303 -0.022242092 0.4204058 0.27567807 0.38451323 0.29793152 0.27122766
-0.31634054 -0.09990586 0.30311126 0.22750849 -0.30644262 0.42740172 -0.15831904 0.052484717
0.41837713 -0.19635305 -0.0681947 -0.042372335 -0.22839181 -0.42724434 0.3433964 -0.1832953
0.05831833 0.32537842 0.23494098 -0.36797568 0.11871765 0.06880747 0.17270587 -0.4025004
0.00093338673 0.27079338 -0.049946215 0.4267269 -0.23675807 -0.16798952 -0.037674323 0.05225281
-0.12115251 0.39730278 -0.30605042 0.12603712 -0.0899709 0.2081228 -0.22790955 -0.106809825
-0.1565921 -0.071559064 -0.207817 -0.3585509 -0.16234046 -0.40455347 -0.18207684 -0.38414037
-0.14415345 0.37129834 -0.36314234 -0.3461459 0.16330093 0.16975808 -0.39844233 -0.19542052
0.30198592 0.42983094 0.05645412 -0.00820184 0.36042237 -0.17577189 0.014543251 -0.06745148
0.08251415 -0.15697008 -0.35302433 -0.10555192 0.16242631 0.37500533 -0.013802694 0.35188958
0.07741187 -0.31397584 -0.43939027 0.10253852 -0.35558575 -0.26671696 -0.050665498 -0.045481067
0.41945806 -0.30119082 -0.12005668 -0.19376619 -0.33068958 0.2066177 -0.4028034 -0.13717005
0.00227605 0.44017273 0.050637882 -0.2939067 -0.21707042 0.23824479 -0.00080853 0.019022953
0.0856506 0.28285083 0.26777235 0.056697436 -0.4311037 0.28789335 0.37952545 0.07077287
0.4432083 -0.22035983 -0.17667565 -0.40511346 0.2018749 0.034099326 -0.02602314 0.10472868
-0.27872443 -0.00026837268 -0.25300452 0.26672405 -0.291449 -0.35500038 0.18877982 0.13624403
0.1571014 -0.12638295 0.42215616 0.073060334 -0.23112422 0.17856161 0.37013263 -0.0039256834
0.17161441 0.25895163 0.1513655 0.036432683 0.011873385 0.19711669 0.24003655 0.2740027
-0.19039506 -0.015902707 0.22363585 -0.34648538 -0.4071778 -0.4128291 0.025260031 -0.31130022
-0.080295466 0.29484925 0.18435727 -0.21806027 -0.37343195 0.016284848 -0.013648835 0.26585546
0.43777907 0.051859207 0.38084564 0.2264585 -0.18966053 0.24163164 -0.40634593 -0.20206991
-0.36643687 0.015131122 0.09929096 -0.25535622 -0.062634155 -0.098947525 -0.09917911 -0.41015396
-0.05330807 0.32714337 -0.27464533 0.31264943 0.019262217 -0.18151754 0.41052476 0.27198964
-0.031065337 -0.054143522 -0.29471248 -0.10219742 -0.3137123 -0.071544886 0.092693865 0.054533873
0.38158265 -0.35324857 -0.2705864 0.09759697 0.32059965 0.21962199 -0.3047538 0.43321848
-0.382433 0.23985405 0.1500769 -0.26192433 0.3023632 -0.23716319 -0.22743252 0.39113334
-0.41146165 -0.4174894 0.33078468 0.36318463 -0.42655 0.20986627 -0.22989468 -0.4174433
0.30044556 -0.010239266 -0.40480506 0.4128937 0.38445875 -0.023501748 -0.29389048 -0.3801849
0.287809 -0.2773063 0.30523953 0.08992425 -0.19307709 0.0841094 0.11651517 -0.122469746
-0.341446 -0.053076535 -0.4075334 -0.26267198 -0.32693693 -0.23390956 0.26892456 0.3832319
0.08476146 -0.4434168 -0.17284949 0.14925157 0.31025442 -0.1172119 -0.31519353 -0.42390782
0.39363864 -0.41606688 -0.39117914 -0.075117856 -0.3943454 0.108709544 0.025218396 0.3108091

fc1.bias f4 [64]
00000000: 5653 b7be 70f6 953e 8fed d93c 1995 8a3e
00000010: eb68 c9be 1650 9dbd 5137 40be b436 a53e
00000020: ea5b c53e 43c6 82be f988 3e3e cff6 c93c
00000030: 0599 963e 3583 c3be 8494 e03e 45ab 12be
00000040: 01e9 583d 96dc 903e 438f cabe 7500 ad3d
00000050: e143 743e a8bd 883e e87d a6be 3164 dfbe
00000060: 1417 a33c e33f d8be 0a14 e4bd 59e9 2f3e
00000070: 7a62 d9bd c297 a4be 3b47 d43e 2150 b53e
00000080: c9b7 bc3d 1fbc c63e bb7c 273e 9447 a13e
00000090: e3f3 b9be 5163 b03e 0f4b 903e d9bb 87be
000000a0: c486 bf3e 78ce 343e 844d 61be d29b 96be
000000b0: ef07 d33e d5ca f0bd 48ed 9cbe 4bb6 c93e
000000c0: a467 45be cc4a 29bc a302 9ebd d579 863c
000000d0: 7449 e43d e750 ab3e d4fb c2be 4e43 be3e
000000e0: efcc 083e 5fc2 8abd f8be 3c3e 3b1c 653d
000000f0: 42a1 6abb 4836 9a3d e883 cbbe 4eb7 c8bd
-0.35805768 0.2928958 0.026602535 0.27066877 -0.3933786 -0.07681291 -0.18771102 0.32268298
0.38546687 -0.25541887 0.18606938 0.02465382 0.2941362 -0.3818604 0.43863308 -0.14323147
0.052956585 0.28293294 -0.39562425 0.08447353 0.23854019 0.26707196 -0.32517934 -0.43631127
0.019908465 -0.42236242 -0.11136635 0.17178859 -0.10614486 -0.32147032 0.41460595 0.35412696
0.09214742 0.388154 0.16356175 0.31499922 -0.36318883 0.34450772 0.28182265 -0.26510504
0.37407506 0.17656887 -0.22002226 -0.29415756 0.4121699 -0.11757437 -0.3064978 0.3939689
-0.19277817 -0.010332774 -0.07715347 0.016415516 0.111468226 0.3346016 -0.38082755 0.37160724
0.13359426 -0.067753546 0.18432224 0.055935126 -0.0035801684 0.075298846 -0.39749074 -0.098005876

fc2.weight f4 [64, 64]
00000000: e08b 833c c05f 2abd 3c52 c4bd b0a3 e43c
00000010: c8f0 5abd 0c11 913d 2afb 82bd 56f5 fc3d
00000020: 3413 4dbd 98a4 b5bc 500c 743c 14f2 2ebd
00000030: 0ef2 aabd 101a ccbc e4cc 2e3d e021 d23c
00000040: fee0 8d3d 48ee 6c3d e065 ebbc 50fc 9c3c
00000050: 98e8 bbbc 48c7 dc3c fc39 283d 6412 21bd
00000060: aa95 cbbd 507c 703d c8f5 473d 609c a9bb
00000070: 1229 c33d 34c6 63bd 202d 15bd 8467 ed3d
00000080: e29c af3d 1207 97bd 7293 f2bd 681d 503d
00000090: 26d0 80bd 2873 4abd 34de 8c3d a05d d13d
000000a0: f090 2e3d 80f9 8b3a 9075 51bc 362f d7bd
000000b0: c040 08bc c232 b9bd c0a9 adbb 10ae c33c
000000c0: 6c35 8d3d b8e4 583d 704e c03c b61a b93d
000000d0: aa70 85bd 2011 c1bb 1068 f3bc 007f 43ba
000000e0: c800 f5bc 206e b4bb e001 793d 584a 713d
000000f0: d0ac ec3c ca70 ef3d 0e0e b8bd c2c3 fabd
00000100: 389c d6bc dc10 8fbd b0d7 33bc a0c1 0bbc
00000110: 0012 d0bd 541a 0fbd 40b0 213c 0017 e83c
00000120: 64ba e5bd 3849 1c3d 647f eb3d e0c4 a0bb
00000130: 0476 a03d 808a 133c 20ed a23b 2eeb a43d
00000140: f037 0f3d 6269 f73d a011 d33d 0472 663d
00000150: 06ef b3bd 9cc1 97bd 0226 fe3d c008 f23b
00000160: 9874 863d 22e7 95bd b2fb 87bd d444 4abd
00000170: 4e6f 993d 80d7 79bb b8e7 f7bc 8066 0b3b
00000180: 283b 513d b4c3 01bd ce2e 843d 78a6 013d
00000190: 589c e5bc 885b 7a3d 582b b53c cc57 2a3d
000001a0: 2600 da3d 003a f4ba 74ca 60bd 0a5d b6bd
000001b0: 9852 74bd 5064 45bc 82c0 b43d 20a9 613d
000001c0: 6088 76bc 3e5e 98bd 44a2 803d 1ce8 573d
000001d0: 2867 66bd ec77 d2bd 949e 8dbd 5417 383d
000001e0: a085 81bb ca90 e1bd 8087 2c3b 3091 d1bc
000001f0: 4034 813d ea26 d0bd e868 2f3d 6e90 da3d
00000200: 98dc 63bd a855 c7bc eeee 84bd ca3a b03d
00000210: 6461 edbd 3092 0dbd 2c96 ed3d 3aaa c8bd
00000220: 003e aabc e4f3 57bd 1e5f e53d a056 91bc
00000230: 58a4 07bd c2b7 d2bd 9c5f 3ebd 3ebf 833d
00000240: 943a e9bd 00f1 05bb 8c78 4abd b0b1 62bc
00000250: 363e c53d 30f5 5f3d acbd 343d 2228 d8bd
00000260: 5e80 b73d 30b3 fdbd ce56 c43d 8012 5f3c
00000270: d00b 4e3d 50ab 443d b83c 92bd c0e2 363b
00000280: 3ef0 e5bd 800c b03d d25d 89bd 0022 ee39
00000290: 80ea 843d 3607 bdbd 0002 edba 00a0 a039
000002a0: e8b7 4b3d 60fb eb3b 1889 993d 5cb6 99bd
000002b0: 0a73 823d d20d d3bd 525f c83d 20a8 f1bd
000002c0: ee43 d3bd 005a 883a 085e 9a3c 1a5b 9c3d
000002d0: 4c8a 153d b4cb 8ebd 907f a9bd 088d fdbc
000002e0: 4c76 adbd 62ee b33d 4c59 333d 3eb2 dcbd
000002f0: 200e 993c 30f3 143d bed7 b23d 40e0 22bc
00000300: 8cc1 1e3d c24a fb3d a6ea 84bd a24e ac3d
00000310: 1a92 a23d ecdb aabd 8823 b5bc ac2d efbd
00000320: 02d6 c7bd 942a 0fbd cc9c c4bd de99 c1bd
00000330: f8e1 8b3c 22db 8b3d a06c 803d 0c4a d73d
00000340: 14b5 223d 6070 653c b8ba 743d 04a7 4fbd
00000350: 1209 aebd 2eaa de3d 3658 aebd 8c84 3f3d
00000360: 38d3 ccbd f4a3 233d f8c3 41bd 5abb cebd
00000370: f067 e5bd 0a98 e7bd 68c4 373d 2041 123d
00000380: 00e1 233d 14ef b5bd e407 0d3d 0058 a23a
00000390: 28e0 36bd 4071 9cbd f4cc c93d b057 283c
000003a0: e427 753d 8caf 383d ba62 8dbd 942b 493d
000003b0: 70a5 723c eceb e9bd c0ac e93c a443 2f3d
000003c0: b263 bbbd 5619 9fbd 0838 8a3c d8f4 223d
000003d0: 249a 58bd 8cf2 c53d e46b 6c3d d0bd 7e3d
000003e0: 08d8 073d d0bd 983d 8edb e23d 4e32 89bd
000003f0: ee88 bb3d 78c3 f3bc 202f e93c 6e19 f4bd
0.016057909 -0.04159522 -0.095859975 0.027910084 -0.053452283 0.070833296 -0.06395562 0.123514816
-0.05006714 -0.022173211 0.014895514 -0.042711332 -0.083469495 -0.024914771 0.042675868 0.025650918
0.069276795 0.05784443 -0.028735101 0.01916328 -0.022938058 0.026950493 0.041070923 -0.03932418
-0.099406555 0.058712304 0.04881838 -0.005176112 0.09529318 -0.055608943 -0.036419988 0.1159201
0.08574845 -0.073743954 -0.11844529 0.050809294 -0.06289701 -0.049426228 0.068783194 0.10222936
0.042618692 0.0010679215 -0.012784377 -0.10507052 -0.008316219 -0.090428844 -0.005299777 0.02388671
0.06894955 0.0529525 0.023474902 0.09038298 -0.065156296 -0.005891934 -0.029712707 -0.0007457584
-0.0299076 -0.005506292 0.060792804 0.05890879 0.028890997 0.11691435 -0.08987056 -0.12244369
-0.026197538 -0.069856375 -0.010976717 -0.0085300505 -0.10159683 -0.034937218 0.009868681 0.02833128
-0.11217192 0.038155764 0.11498907 -0.004906282 0.0783501 0.009005189 0.004972115 0.080526695
0.034965456 0.12080647 0.10306096 0.056261078 -0.087858245 -0.07409975 0.12409593 0.007386297
0.06565207 -0.07319476 -0.06639804 -0.049382046 0.07491933 -0.0038122833 -0.03026186 0.0021270812
0.051081806 -0.031680778 0.0645424 0.031652898 -0.028028652 0.061122447 0.022115394 0.041587636
0.106445596 -0.0018633008 -0.054880574 -0.089044645 -0.05964908 -0.012047842 0.088257805 0.05509293
-0.015047163 -0.0743985 0.0628095 0.05271159 -0.05625072 -0.102767795 -0.06915012 0.044944122
-0.003952697 -0.110139444 0.0026325881 -0.025581926 0.06308794 -0.10163672 0.042824656 0.10672079
-0.055630296 -0.024332836 -0.06490885 0.08604963 -0.115908414 -0.034563243 0.11600909 -0.09798093
-0.020781517 -0.052722827 0.11199783 -0.017741501 -0.033115715 -0.10288955 -0.0464779 0.06432961
-0.11388126 -0.0020437837 -0.04943137 -0.013836309 0.096310064 0.05467719 0.044126198 -0.1055453
0.08960031 -0.12387693 0.09586869 0.013615251 0.050304234 0.04801494 -0.071404874 0.002790615
-0.11227463 0.08596134 -0.06707348 0.0004542023 0.0649004 -0.09229891 -0.0018082261 0.00030636787
0.049735934 0.007201597 0.07496852 -0.075054854 0.06369598 -0.103053704 0.09783806 -0.117996454
-0.10315691 0.0010402799 0.018843666 0.07634564 0.036508843 -0.06972447 -0.08276284 -0.030951038
-0.08469829 0.08785702 0.043786332 -0.107761845 0.018683493 0.036364734 0.08732556 -0.009941161
0.0387588 0.12270118 -0.06490068 0.084134355 0.07938023 -0.08342728 -0.02211167 -0.11678633
-0.097576156 -0.034952715 -0.09600219 -0.09453176 0.017075524 0.06828906 0.062707186 0.1051217
0.03972347 0.014003843 0.05974838 -0.050696388 -0.08497824 0.10872303 -0.08512919 0.046757266
-0.10001224 0.03995128 -0.04730603 -0.10094328 -0.11201465 -0.11308296 0.044865042 0.03570664
0.0400095 -0.08883491 0.034431353 0.0012385845 -0.044647366 -0.07638788 0.09853545 0.010274813
0.059852496 0.04508929 -0.06903596 0.049113825 0.014809951 -0.11421952 0.028524756 0.042789117
-0.09149875 -0.07768504 0.01687242 0.039784282 -0.052881375 0.09665403 0.05772008 0.062192738
0.033165008 0.07458079 0.11077033 -0.06699048 0.09156977 -0.029756293 0.028464854 -0.11918913

fc2.bias f4 [64]
00000000: 7c36 55bd 44ee 4a3d e4aa 1c3d 086c 84bc
00000010: 0cfc f23d ba37 d0bd 0064 9e3d 38c6 a1bd
00000020: 3ae0 edbd c8f8 e9bc 1463 513d ac70 20bd
00000030: 6ea0 a0bd ec81 c5bd e43b 7dbd 667b c0bd
00000040: c4e6 d53d e8cd 2c3d b0d0 01bd 2ccc 293d
00000050: da40 853d 4249 cf3d 7048 9f3d 84f9 1e3d
00000060: 8201 ab3d a847 533d f0f9 6bbd de23 893d
00000070: d6b5 e13d a636 87bd 5422 3e3d 9290 c23d
00000080: 2484 51bd fcfd 923d b8aa 99bd 087c 67bd
00000090: 0074 873c a0a0 59bd b872 91bc d0ff b83d
000000a0: 28d6 7c3d 582b 83bd 88c7 b03d d08e 60bc
000000b0: 2807 813d 008f d3bc 1096 40bd 4acb c33d
000000c0: dc0e 7b3d 8050 d0bc f48e aebd 0093 3dbc
000000d0: 8ef0 e23d 5486 9bbd 7ce1 9fbd 94bb 6abd
000000e0: 98f3 fd3d 7a2b a93d a817 053d c4b6 a53d
000000f0: b03b a13c b0b7 a83d 08ea e5bc 60f5 bfbd
-0.052053913 0.049543634 0.03824891 -0.016164795 0.118644804 -0.10166879 0.07733917 -0.07899135
-0.116150334 -0.028561011 0.05111988 -0.039169952 -0.078430995 -0.09643921 -0.061824694 -0.093985364
0.10444406 0.042188555 -0.03169316 0.04145448 0.0650651 0.10121395 0.07777488 0.038812175
0.08349897 0.05158201 -0.057611406 0.06696294 0.110210106 -0.0660222 0.046419457 0.09500231
-0.05115141 0.0717735 -0.07503265 -0.05651477 0.016534805 -0.0531317 -0.017754897 0.09033167
0.061727673 -0.064047515 0.086318076 -0.013705924 0.06300193 -0.025825024 -0.04701811 0.09560259
0.061293468 -0.02542901 -0.0852336 -0.011570692 0.110810384 -0.075939804 -0.078066796 -0.057307795
0.123999774 0.082602456 0.032493263 0.080915004 0.019681782 0.082381606 -0.028065696 -0.093729734

fc3.weight f4 [4, 64]
00000000: c025 ccbb 0ef4 cabd 5c9f 603d f073 82bc
00000010: e056 d33d f8c2 08bd 30bd 263c 1e87 853d
00000020: e87a ac3c a05b e9bd 760b bfbd 6ac3 f0bd
00000030: 6c81 abbd f8e8 89bc babb 82bd e2e0 ac3d
00000040: ec6e a1bd c8c1 ddbc dcd2 4fbd 0007 17bb
00000050: fce6 eb3d 327f e83d b2c8 dcbd f667 ffbd
00000060: 0cd7 dcbd d81f 823d 347d 173d 78cd 9cbd
00000070: e06e 963d ea4b aa3d 4c8e b13d a0d6 1abc
00000080: a878 61bd 5203 e03d 623a c73d e8a2 c3bd
00000090: ce82 b13d a4da c4bd 382a f5bd 7005 cbbc
000000a0: c44b 4c3d 364d f33d e85c 95bd c057 15bc
000000b0: 0093 113a 02db 983d f8cc e8bd 90ac 20bc
000000c0: 086f a23d e203 d2bd 3caf c4bd 5802 ae3d
000000d0: 86e0 963d 1c88 d0bd 143c d6bd 2a72 91bd
000000e0: 381a 7c3d 8850 773d 9ce9 973d 847b 363d
000000f0: 6005 7d3d 1020 ff3c 72e9 8f3d 4010 f63b
00000100: e0b4 c7bc d227 97bd a84a 7d3d 242d bd3d
00000110: 7201 f63d d807 803d 3414 ea3d 00d5 24bb
00000120: eeff e73d 36e7 a2bd 44f9 a73d 6a10 f93d
00000130: 8025 ea3d 0c3a 0f3d 744f ac3d 0821 d03d
00000140: a48a 80bd 0896 16bd 6281 843d e289 933d
00000150: 8076 053c 7886 3c3d 84dc 46bd 003c 383c
00000160: 2cc2 0ebd 0067 5a3a 3428 6a3d 74c6 003d
00000170: 883f 1b3d fad8 cc3d 80c4 2a3b 009f 25bd
00000180: 9078 8c3d a0f7 c8bc 1055 f5bc d8b5 c8bd
00000190: a0d5 ca3b b89f cc3c 6037 f23d 5465 b3bd
000001a0: d8ff bdbd 6c58 73bd b087 0bbc d0e9 e23d
000001b0: e8db dbbd d0f5 093c 524f c4bd f43f 973d
000001c0: 407a 373c a251 a83d d091 743c f045 84bc
000001d0: 3c03 d43d 8052 0ebc be74 bf3d 5447 63bd
000001e0: a8bc 893c 00d8 173d 3077 77bd 10dc eebd
000001f0: 105c 1ebd d03e 403d ec6d 053d 3c7d 9d3d
00000200: f4ad a53d 8a14 c1bd d0ed 43bc 587f 75bd
00000210: f48c f53d 4614 f13d 548a 3dbd f0f9 f53c
00000220: 2090 de3c d4c5 b3bd 585d 833c 60b7 ebbb
00000230: ac7a f3bd 00c8 b4bd 5029 033c 80c9 aeba
00000240: a070 b5bd e8a4 9a3c 26bb aabd d6a8 b1bd
00000250: ea1a b53d e6ca eebd 547b 6bbd ecc3 c0bd
00000260: 68c8 e33c a077 223d f8c0 613d 52a4 da3d
00000270: a6c2 ae3d b01d a8bc b2ef 9bbd 2c4f 02bd
00000280: e069 22bd 8481 27bd 5249 eebd f0bd 143d
00000290: f02c 793d a02e 50bc 1004 ca3c bee9 96bd
000002a0: d85c 3cbd 4c86 b4bd 08f3 cabd 6e24 90bd
000002b0: 880f ca3c 24db 02bd 9823 cd3c 0055 ea3b
000002c0: 4c87 c13d c00d 88bd 189d 7abd fc4a 4f3d
000002d0: 680f 9e3d 40ac 9bbc 20c8 e03c 3c5e aebd
000002e0: fcf6 65bd 649a 80bd 4c36 f7bd 00f2 1a3d
000002f0: 16cd bdbd 60f8 c63c f8d5 b3bd 54fc 69bd
00000300: 00fc 4f3d b8d0 d6bc 14b5 90bd 008d 51bb
00000310: ccd1 8dbd 0c40 7cbd ec04 44bd 0e0a 8cbd
00000320: e055 75bc 5ac4 c83d bc43 07bd 3a66 f2bd
00000330: e4fd 4a3d 52aa d0bd 007e e83c 309e e5bd
00000340: dc0e cf3d 646c 3f3d 48f4 a13d 8861 b83c
00000350: 8a9a b43d 7c72 113d 58d5 0dbd 5043 da3c
00000360: 9413 a73d 725d 8bbd 10c2 463c 18fa b5bd
00000370: 2cea 87bd 70e6 2f3d e895 f23c 4e32 ccbd
00000380: d685 a83d 2c76 b2bd 3a8c bdbd a06c ffbc
00000390: 2c66 de3d d09e 213d b845 a23c be1e cdbd
000003a0: 885e d63c 60ae a4bd 04b6 6abd 6025 7b3c
000003b0: 102b f83c 9422 e53d ca21 cbbd f4b6 b5bd
000003c0: 10be df3d c682 ea3d 2c6a b53d a8e4 cdbc
000003d0: ca10 8fbd 544f eb3d 1cd0 64bd 282f 0ebd
000003e0: 206f 733d 1e62 b93d e07d 41bd 7c09 78bd
000003f0: 8c3f 94bd f0a7 4d3d fc32 573d 007e f33d
-0.006230086 -0.09909831 0.054839477 -0.015924424 0.103193045 -0.03338906 0.010176942 0.06519912
0.0210547 -0.11394429 -0.09328358 -0.11756022 -0.08374295 -0.016834721 -0.06383462 0.084413305
-0.07882485 -0.027069941 -0.0507382 -0.0023044944 0.11518666 0.113523856 -0.10780467 -0.12471001
-0.107832044 0.0635373 0.036984637 -0.076563776 0.073453665 0.08315261 0.08669719 -0.009450585
-0.055046707 0.10938133 0.097279325 -0.09552556 0.08667527 -0.09612015 -0.11970943 -0.024782866
0.049876943 0.11879961 -0.07293111 -0.0091151595 0.0005553216 0.074636474 -0.1136722 -0.009806767
0.07931334 -0.10254647 -0.09603736 0.08496541 0.07367043 -0.10182211 -0.10460678 -0.07101853
0.06154844 0.060379535 0.07417604 0.044551387 0.061772704 0.031143218 0.07026948 0.0075092614
-0.02437824 -0.07380642 0.061838776 0.092371255 0.120119944 0.06251496 0.11429635 -0.0025151372
0.113281116 -0.07954256 0.082018405 0.12161334 0.11432934 0.034967467 0.08413592 0.1016255
-0.062764436 -0.036764175 0.0646999 0.072040334 0.008145928 0.046026677 -0.048550144 0.011244774
-0.034853145 0.0008331388 0.057167247 0.03143926 0.037902385 0.100023225 0.0026057065 -0.040434837
0.06858933 -0.02453214 -0.029947788 -0.09800309 0.006190017 0.024978504 0.11826968 -0.08759561
-0.09277314 -0.059410498 -0.008516237 0.110797524 -0.10735303 0.008420423 -0.09585442 0.07385245
0.01119858 0.08218695 0.0149273425 -0.01614663 0.103521794 -0.008686662 0.09348439 -0.055487946
0.016813591 0.037071228 -0.0604164 -0.11663067 -0.038662016 0.046934903 0.032575533 0.07689902
0.080898196 -0.09427746 -0.011958554 -0.059935898 0.11989775 0.11771445 -0.046274498 0.030026406
0.027168334 -0.08777967 0.01603572 -0.007193491 -0.11888632 -0.088272095 0.008005455 -0.0013335198
-0.08859372 0.018877462 -0.08336477 -0.08674781 0.08843024 -0.116597936 -0.05749066 -0.09412369
0.027805522 0.039664865 0.05511567 0.10675873 0.0853322 -0.020521969 -0.07614078 -0.031813785
-0.03965175 -0.040895 -0.116350785 0.03631395 0.06083387 -0.012706429 0.02466014 -0.073688015
-0.04598698 -0.088146776 -0.09909636 -0.070381984 0.024665609 -0.03194727 0.025041386 0.007151246
0.09449634 -0.066432476 -0.061184973 0.05060862 0.07717782 -0.019003034 0.027439177 -0.085140675
-0.056143746 -0.06279448 -0.12070903 0.037828445 -0.09267633 0.024288356 -0.08781046 -0.057125404
0.050777435 -0.026222572 -0.07065788 -0.0031974912 -0.06924781 -0.061584517 -0.047856256 -0.06837855
-0.0149740875 0.09803076 -0.03302358 -0.118359044 0.049558535 -0.10188736 0.028380394 -0.112118125
0.10110256 0.04673423 0.07907921 0.022507444 0.088185385 0.03550957 -0.03462729 0.026643425
0.08158031 -0.06804933 0.012131229 -0.08885592 -0.066364616 0.04294437 0.029612496 -0.09970532
0.08228652 -0.08713946 -0.09255262 -0.031179726 0.108593315 0.039458096 0.019808635 -0.10015629
0.026168123 -0.08041072 -0.05730249 0.015328735 0.030293971 0.11188236 -0.09918554 -0.08872786
0.109249234 0.11450724 0.08858141 -0.025133446 -0.06985624 0.1148974 -0.05586253 -0.03471294
0.05943215 0.090519175 -0.047239184 -0.06055592 -0.07238683 0.050208986 0.052538857 0.11889267

fc3.bias f4 [4]
00000000: 7042 993c a00b 38bc 5087 c13d 3cd4 e8bd
0.018708438 -0.01123324 0.09449637 -0.113686055
